<?xml version="1.0"?>
<net name="main_graph" version="11">
	<layers>
		<layer id="0" name="input" type="Parameter" version="opset1">
			<data shape="?,13601" element_type="f32" />
			<output>
				<port id="0" precision="FP32" names="input">
					<dim>-1</dim>
					<dim>13601</dim>
				</port>
			</output>
		</layer>
		<layer id="1" name="Constant_1740_compressed" type="Const" version="opset1">
			<data element_type="f16" shape="1, 1" offset="0" size="2" />
			<output>
				<port id="0" precision="FP16">
					<dim>1</dim>
					<dim>1</dim>
				</port>
			</output>
		</layer>
		<layer id="2" name="Constant_1740" type="Convert" version="opset1">
			<data destination_type="f32" />
			<rt_info>
				<attribute name="decompression" version="0" />
			</rt_info>
			<input>
				<port id="0" precision="FP16">
					<dim>1</dim>
					<dim>1</dim>
				</port>
			</input>
			<output>
				<port id="1" precision="FP32">
					<dim>1</dim>
					<dim>1</dim>
				</port>
			</output>
		</layer>
		<layer id="3" name="_operators.0.leaf_nodes_compressed" type="Const" version="opset1">
			<data element_type="f16" shape="6400, 1" offset="2" size="12800" />
			<output>
				<port id="0" precision="FP16">
					<dim>6400</dim>
					<dim>1</dim>
				</port>
			</output>
		</layer>
		<layer id="4" name="_operators.0.leaf_nodes" type="Convert" version="opset1">
			<data destination_type="f32" />
			<rt_info>
				<attribute name="decompression" version="0" />
			</rt_info>
			<input>
				<port id="0" precision="FP16">
					<dim>6400</dim>
					<dim>1</dim>
				</port>
			</input>
			<output>
				<port id="1" precision="FP32" names="_operators.0.leaf_nodes">
					<dim>6400</dim>
					<dim>1</dim>
				</port>
			</output>
		</layer>
		<layer id="5" name="_operators.0.root_nodes" type="Const" version="opset1">
			<data element_type="i64" shape="100" offset="12802" size="800" />
			<output>
				<port id="0" precision="I64" names="_operators.0.root_nodes">
					<dim>100</dim>
				</port>
			</output>
		</layer>
		<layer id="6" name="Constant_16" type="Const" version="opset1">
			<data element_type="i64" shape="" offset="13602" size="8" />
			<output>
				<port id="0" precision="I64" />
			</output>
		</layer>
		<layer id="7" name="/_operators.0/Gather" type="Gather" version="opset8">
			<data batch_dims="0" />
			<input>
				<port id="0" precision="FP32">
					<dim>-1</dim>
					<dim>13601</dim>
				</port>
				<port id="1" precision="I64">
					<dim>100</dim>
				</port>
				<port id="2" precision="I64" />
			</input>
			<output>
				<port id="3" precision="FP32" names="/_operators.0/Gather_output_0">
					<dim>-1</dim>
					<dim>100</dim>
				</port>
			</output>
		</layer>
		<layer id="8" name="Constant_1733_compressed" type="Const" version="opset1">
			<data element_type="f16" shape="1, 100" offset="13610" size="200" />
			<output>
				<port id="0" precision="FP16">
					<dim>1</dim>
					<dim>100</dim>
				</port>
			</output>
		</layer>
		<layer id="9" name="Constant_1733" type="Convert" version="opset1">
			<data destination_type="f32" />
			<rt_info>
				<attribute name="decompression" version="0" />
			</rt_info>
			<input>
				<port id="0" precision="FP16">
					<dim>1</dim>
					<dim>100</dim>
				</port>
			</input>
			<output>
				<port id="1" precision="FP32">
					<dim>1</dim>
					<dim>100</dim>
				</port>
			</output>
		</layer>
		<layer id="10" name="/_operators.0/Less" type="Less" version="opset1">
			<data auto_broadcast="numpy" />
			<input>
				<port id="0" precision="FP32">
					<dim>-1</dim>
					<dim>100</dim>
				</port>
				<port id="1" precision="FP32">
					<dim>1</dim>
					<dim>100</dim>
				</port>
			</input>
			<output>
				<port id="2" precision="BOOL" names="/_operators.0/Less_output_0">
					<dim>-1</dim>
					<dim>100</dim>
				</port>
			</output>
		</layer>
		<layer id="11" name="/_operators.0/Cast" type="Convert" version="opset1">
			<data destination_type="i64" />
			<input>
				<port id="0" precision="BOOL">
					<dim>-1</dim>
					<dim>100</dim>
				</port>
			</input>
			<output>
				<port id="1" precision="I64" names="/_operators.0/Cast_output_0">
					<dim>-1</dim>
					<dim>100</dim>
				</port>
			</output>
		</layer>
		<layer id="12" name="Constant_1734" type="Const" version="opset1">
			<data element_type="i64" shape="1, 100" offset="13810" size="800" />
			<output>
				<port id="0" precision="I64">
					<dim>1</dim>
					<dim>100</dim>
				</port>
			</output>
		</layer>
		<layer id="13" name="/_operators.0/Add" type="Add" version="opset1">
			<data auto_broadcast="numpy" />
			<input>
				<port id="0" precision="I64">
					<dim>-1</dim>
					<dim>100</dim>
				</port>
				<port id="1" precision="I64">
					<dim>1</dim>
					<dim>100</dim>
				</port>
			</input>
			<output>
				<port id="2" precision="I64" names="/_operators.0/Add_output_0">
					<dim>-1</dim>
					<dim>100</dim>
				</port>
			</output>
		</layer>
		<layer id="14" name="Constant_178" type="Const" version="opset1">
			<data element_type="i64" shape="1" offset="14610" size="8" />
			<rt_info>
				<attribute name="precise" version="0" />
			</rt_info>
			<output>
				<port id="0" precision="I64">
					<dim>1</dim>
				</port>
			</output>
		</layer>
		<layer id="15" name="/_operators.0/Reshape" type="Reshape" version="opset1">
			<data special_zero="true" />
			<input>
				<port id="0" precision="I64">
					<dim>-1</dim>
					<dim>100</dim>
				</port>
				<port id="1" precision="I64">
					<dim>1</dim>
				</port>
			</input>
			<output>
				<port id="2" precision="I64" names="/_operators.0/Reshape_output_0">
					<dim>-1</dim>
				</port>
			</output>
		</layer>
		<layer id="16" name="Constant_1735" type="Const" version="opset1">
			<data element_type="i64" shape="1" offset="14618" size="8" />
			<output>
				<port id="0" precision="I64">
					<dim>1</dim>
				</port>
			</output>
		</layer>
		<layer id="17" name="/_operators.0/Mul" type="Multiply" version="opset1">
			<data auto_broadcast="numpy" />
			<input>
				<port id="0" precision="I64">
					<dim>-1</dim>
				</port>
				<port id="1" precision="I64">
					<dim>1</dim>
				</port>
			</input>
			<output>
				<port id="2" precision="I64" names="/_operators.0/Mul_output_0">
					<dim>-1</dim>
				</port>
			</output>
		</layer>
		<layer id="18" name="_operators.0.nodes.0" type="Const" version="opset1">
			<data element_type="i64" shape="200" offset="14626" size="1600" />
			<output>
				<port id="0" precision="I64" names="_operators.0.nodes.0">
					<dim>200</dim>
				</port>
			</output>
		</layer>
		<layer id="19" name="Constant_23" type="Const" version="opset1">
			<data element_type="i64" shape="" offset="16226" size="8" />
			<output>
				<port id="0" precision="I64" />
			</output>
		</layer>
		<layer id="20" name="/_operators.0/Gather_1" type="Gather" version="opset8">
			<data batch_dims="0" />
			<input>
				<port id="0" precision="I64">
					<dim>200</dim>
				</port>
				<port id="1" precision="I64">
					<dim>-1</dim>
				</port>
				<port id="2" precision="I64" />
			</input>
			<output>
				<port id="3" precision="I64" names="/_operators.0/Gather_1_output_0">
					<dim>-1</dim>
				</port>
			</output>
		</layer>
		<layer id="21" name="/_operators.0/Constant_1" type="Const" version="opset1">
			<data element_type="i64" shape="2" offset="16234" size="16" />
			<rt_info>
				<attribute name="precise" version="0" />
			</rt_info>
			<output>
				<port id="0" precision="I64" names="/_operators.0/Constant_1_output_0">
					<dim>2</dim>
				</port>
			</output>
		</layer>
		<layer id="22" name="/_operators.0/Reshape_1" type="Reshape" version="opset1">
			<data special_zero="true" />
			<input>
				<port id="0" precision="I64">
					<dim>-1</dim>
				</port>
				<port id="1" precision="I64">
					<dim>2</dim>
				</port>
			</input>
			<output>
				<port id="2" precision="I64" names="/_operators.0/Reshape_1_output_0">
					<dim>-1</dim>
					<dim>100</dim>
				</port>
			</output>
		</layer>
		<layer id="23" name="/_operators.0/GatherElements" type="GatherElements" version="opset6">
			<data axis="1" />
			<input>
				<port id="0" precision="FP32">
					<dim>-1</dim>
					<dim>13601</dim>
				</port>
				<port id="1" precision="I64">
					<dim>-1</dim>
					<dim>100</dim>
				</port>
			</input>
			<output>
				<port id="2" precision="FP32" names="/_operators.0/GatherElements_output_0">
					<dim>-1</dim>
					<dim>100</dim>
				</port>
			</output>
		</layer>
		<layer id="24" name="Constant_179" type="Const" version="opset1">
			<data element_type="i64" shape="1" offset="14610" size="8" />
			<rt_info>
				<attribute name="precise" version="0" />
			</rt_info>
			<output>
				<port id="0" precision="I64">
					<dim>1</dim>
				</port>
			</output>
		</layer>
		<layer id="25" name="/_operators.0/Reshape_2" type="Reshape" version="opset1">
			<data special_zero="true" />
			<input>
				<port id="0" precision="FP32">
					<dim>-1</dim>
					<dim>100</dim>
				</port>
				<port id="1" precision="I64">
					<dim>1</dim>
				</port>
			</input>
			<output>
				<port id="2" precision="FP32" names="/_operators.0/Reshape_2_output_0">
					<dim>-1</dim>
				</port>
			</output>
		</layer>
		<layer id="26" name="_operators.0.biases.0_compressed" type="Const" version="opset1">
			<data element_type="f16" shape="200" offset="16250" size="400" />
			<output>
				<port id="0" precision="FP16">
					<dim>200</dim>
				</port>
			</output>
		</layer>
		<layer id="27" name="_operators.0.biases.0" type="Convert" version="opset1">
			<data destination_type="f32" />
			<rt_info>
				<attribute name="decompression" version="0" />
			</rt_info>
			<input>
				<port id="0" precision="FP16">
					<dim>200</dim>
				</port>
			</input>
			<output>
				<port id="1" precision="FP32" names="_operators.0.biases.0">
					<dim>200</dim>
				</port>
			</output>
		</layer>
		<layer id="28" name="Constant_32" type="Const" version="opset1">
			<data element_type="i64" shape="" offset="16226" size="8" />
			<output>
				<port id="0" precision="I64" />
			</output>
		</layer>
		<layer id="29" name="/_operators.0/Gather_2" type="Gather" version="opset8">
			<data batch_dims="0" />
			<input>
				<port id="0" precision="FP32">
					<dim>200</dim>
				</port>
				<port id="1" precision="I64">
					<dim>-1</dim>
				</port>
				<port id="2" precision="I64" />
			</input>
			<output>
				<port id="3" precision="FP32" names="/_operators.0/Gather_2_output_0">
					<dim>-1</dim>
				</port>
			</output>
		</layer>
		<layer id="30" name="/_operators.0/Less_1" type="Less" version="opset1">
			<data auto_broadcast="numpy" />
			<input>
				<port id="0" precision="FP32">
					<dim>-1</dim>
				</port>
				<port id="1" precision="FP32">
					<dim>-1</dim>
				</port>
			</input>
			<output>
				<port id="2" precision="BOOL" names="/_operators.0/Less_1_output_0">
					<dim>-1</dim>
				</port>
			</output>
		</layer>
		<layer id="31" name="/_operators.0/Cast_1" type="Convert" version="opset1">
			<data destination_type="i64" />
			<input>
				<port id="0" precision="BOOL">
					<dim>-1</dim>
				</port>
			</input>
			<output>
				<port id="1" precision="I64" names="/_operators.0/Cast_1_output_0">
					<dim>-1</dim>
				</port>
			</output>
		</layer>
		<layer id="32" name="/_operators.0/Add_1" type="Add" version="opset1">
			<data auto_broadcast="numpy" />
			<input>
				<port id="0" precision="I64">
					<dim>-1</dim>
				</port>
				<port id="1" precision="I64">
					<dim>-1</dim>
				</port>
			</input>
			<output>
				<port id="2" precision="I64" names="/_operators.0/Add_1_output_0">
					<dim>-1</dim>
				</port>
			</output>
		</layer>
		<layer id="33" name="Constant_1736" type="Const" version="opset1">
			<data element_type="i64" shape="1" offset="14618" size="8" />
			<output>
				<port id="0" precision="I64">
					<dim>1</dim>
				</port>
			</output>
		</layer>
		<layer id="34" name="/_operators.0/Mul_1" type="Multiply" version="opset1">
			<data auto_broadcast="numpy" />
			<input>
				<port id="0" precision="I64">
					<dim>-1</dim>
				</port>
				<port id="1" precision="I64">
					<dim>1</dim>
				</port>
			</input>
			<output>
				<port id="2" precision="I64" names="/_operators.0/Mul_1_output_0">
					<dim>-1</dim>
				</port>
			</output>
		</layer>
		<layer id="35" name="_operators.0.nodes.1" type="Const" version="opset1">
			<data element_type="i64" shape="400" offset="16650" size="3200" />
			<output>
				<port id="0" precision="I64" names="_operators.0.nodes.1">
					<dim>400</dim>
				</port>
			</output>
		</layer>
		<layer id="36" name="Constant_37" type="Const" version="opset1">
			<data element_type="i64" shape="" offset="16226" size="8" />
			<output>
				<port id="0" precision="I64" />
			</output>
		</layer>
		<layer id="37" name="/_operators.0/Gather_3" type="Gather" version="opset8">
			<data batch_dims="0" />
			<input>
				<port id="0" precision="I64">
					<dim>400</dim>
				</port>
				<port id="1" precision="I64">
					<dim>-1</dim>
				</port>
				<port id="2" precision="I64" />
			</input>
			<output>
				<port id="3" precision="I64" names="/_operators.0/Gather_3_output_0">
					<dim>-1</dim>
				</port>
			</output>
		</layer>
		<layer id="38" name="/_operators.0/Constant_4" type="Const" version="opset1">
			<data element_type="i64" shape="2" offset="16234" size="16" />
			<rt_info>
				<attribute name="precise" version="0" />
			</rt_info>
			<output>
				<port id="0" precision="I64" names="/_operators.0/Constant_4_output_0">
					<dim>2</dim>
				</port>
			</output>
		</layer>
		<layer id="39" name="/_operators.0/Reshape_3" type="Reshape" version="opset1">
			<data special_zero="true" />
			<input>
				<port id="0" precision="I64">
					<dim>-1</dim>
				</port>
				<port id="1" precision="I64">
					<dim>2</dim>
				</port>
			</input>
			<output>
				<port id="2" precision="I64" names="/_operators.0/Reshape_3_output_0">
					<dim>-1</dim>
					<dim>100</dim>
				</port>
			</output>
		</layer>
		<layer id="40" name="/_operators.0/GatherElements_1" type="GatherElements" version="opset6">
			<data axis="1" />
			<input>
				<port id="0" precision="FP32">
					<dim>-1</dim>
					<dim>13601</dim>
				</port>
				<port id="1" precision="I64">
					<dim>-1</dim>
					<dim>100</dim>
				</port>
			</input>
			<output>
				<port id="2" precision="FP32" names="/_operators.0/GatherElements_1_output_0">
					<dim>-1</dim>
					<dim>100</dim>
				</port>
			</output>
		</layer>
		<layer id="41" name="Constant_180" type="Const" version="opset1">
			<data element_type="i64" shape="1" offset="14610" size="8" />
			<rt_info>
				<attribute name="precise" version="0" />
			</rt_info>
			<output>
				<port id="0" precision="I64">
					<dim>1</dim>
				</port>
			</output>
		</layer>
		<layer id="42" name="/_operators.0/Reshape_4" type="Reshape" version="opset1">
			<data special_zero="true" />
			<input>
				<port id="0" precision="FP32">
					<dim>-1</dim>
					<dim>100</dim>
				</port>
				<port id="1" precision="I64">
					<dim>1</dim>
				</port>
			</input>
			<output>
				<port id="2" precision="FP32" names="/_operators.0/Reshape_4_output_0">
					<dim>-1</dim>
				</port>
			</output>
		</layer>
		<layer id="43" name="_operators.0.biases.1_compressed" type="Const" version="opset1">
			<data element_type="f16" shape="400" offset="19850" size="800" />
			<output>
				<port id="0" precision="FP16">
					<dim>400</dim>
				</port>
			</output>
		</layer>
		<layer id="44" name="_operators.0.biases.1" type="Convert" version="opset1">
			<data destination_type="f32" />
			<rt_info>
				<attribute name="decompression" version="0" />
			</rt_info>
			<input>
				<port id="0" precision="FP16">
					<dim>400</dim>
				</port>
			</input>
			<output>
				<port id="1" precision="FP32" names="_operators.0.biases.1">
					<dim>400</dim>
				</port>
			</output>
		</layer>
		<layer id="45" name="Constant_46" type="Const" version="opset1">
			<data element_type="i64" shape="" offset="16226" size="8" />
			<output>
				<port id="0" precision="I64" />
			</output>
		</layer>
		<layer id="46" name="/_operators.0/Gather_4" type="Gather" version="opset8">
			<data batch_dims="0" />
			<input>
				<port id="0" precision="FP32">
					<dim>400</dim>
				</port>
				<port id="1" precision="I64">
					<dim>-1</dim>
				</port>
				<port id="2" precision="I64" />
			</input>
			<output>
				<port id="3" precision="FP32" names="/_operators.0/Gather_4_output_0">
					<dim>-1</dim>
				</port>
			</output>
		</layer>
		<layer id="47" name="/_operators.0/Less_2" type="Less" version="opset1">
			<data auto_broadcast="numpy" />
			<input>
				<port id="0" precision="FP32">
					<dim>-1</dim>
				</port>
				<port id="1" precision="FP32">
					<dim>-1</dim>
				</port>
			</input>
			<output>
				<port id="2" precision="BOOL" names="/_operators.0/Less_2_output_0">
					<dim>-1</dim>
				</port>
			</output>
		</layer>
		<layer id="48" name="/_operators.0/Cast_2" type="Convert" version="opset1">
			<data destination_type="i64" />
			<input>
				<port id="0" precision="BOOL">
					<dim>-1</dim>
				</port>
			</input>
			<output>
				<port id="1" precision="I64" names="/_operators.0/Cast_2_output_0">
					<dim>-1</dim>
				</port>
			</output>
		</layer>
		<layer id="49" name="/_operators.0/Add_2" type="Add" version="opset1">
			<data auto_broadcast="numpy" />
			<input>
				<port id="0" precision="I64">
					<dim>-1</dim>
				</port>
				<port id="1" precision="I64">
					<dim>-1</dim>
				</port>
			</input>
			<output>
				<port id="2" precision="I64" names="/_operators.0/Add_2_output_0">
					<dim>-1</dim>
				</port>
			</output>
		</layer>
		<layer id="50" name="Constant_1737" type="Const" version="opset1">
			<data element_type="i64" shape="1" offset="14618" size="8" />
			<output>
				<port id="0" precision="I64">
					<dim>1</dim>
				</port>
			</output>
		</layer>
		<layer id="51" name="/_operators.0/Mul_2" type="Multiply" version="opset1">
			<data auto_broadcast="numpy" />
			<input>
				<port id="0" precision="I64">
					<dim>-1</dim>
				</port>
				<port id="1" precision="I64">
					<dim>1</dim>
				</port>
			</input>
			<output>
				<port id="2" precision="I64" names="/_operators.0/Mul_2_output_0">
					<dim>-1</dim>
				</port>
			</output>
		</layer>
		<layer id="52" name="_operators.0.nodes.2" type="Const" version="opset1">
			<data element_type="i64" shape="800" offset="20650" size="6400" />
			<output>
				<port id="0" precision="I64" names="_operators.0.nodes.2">
					<dim>800</dim>
				</port>
			</output>
		</layer>
		<layer id="53" name="Constant_51" type="Const" version="opset1">
			<data element_type="i64" shape="" offset="16226" size="8" />
			<output>
				<port id="0" precision="I64" />
			</output>
		</layer>
		<layer id="54" name="/_operators.0/Gather_5" type="Gather" version="opset8">
			<data batch_dims="0" />
			<input>
				<port id="0" precision="I64">
					<dim>800</dim>
				</port>
				<port id="1" precision="I64">
					<dim>-1</dim>
				</port>
				<port id="2" precision="I64" />
			</input>
			<output>
				<port id="3" precision="I64" names="/_operators.0/Gather_5_output_0">
					<dim>-1</dim>
				</port>
			</output>
		</layer>
		<layer id="55" name="/_operators.0/Constant_7" type="Const" version="opset1">
			<data element_type="i64" shape="2" offset="16234" size="16" />
			<rt_info>
				<attribute name="precise" version="0" />
			</rt_info>
			<output>
				<port id="0" precision="I64" names="/_operators.0/Constant_7_output_0">
					<dim>2</dim>
				</port>
			</output>
		</layer>
		<layer id="56" name="/_operators.0/Reshape_5" type="Reshape" version="opset1">
			<data special_zero="true" />
			<input>
				<port id="0" precision="I64">
					<dim>-1</dim>
				</port>
				<port id="1" precision="I64">
					<dim>2</dim>
				</port>
			</input>
			<output>
				<port id="2" precision="I64" names="/_operators.0/Reshape_5_output_0">
					<dim>-1</dim>
					<dim>100</dim>
				</port>
			</output>
		</layer>
		<layer id="57" name="/_operators.0/GatherElements_2" type="GatherElements" version="opset6">
			<data axis="1" />
			<input>
				<port id="0" precision="FP32">
					<dim>-1</dim>
					<dim>13601</dim>
				</port>
				<port id="1" precision="I64">
					<dim>-1</dim>
					<dim>100</dim>
				</port>
			</input>
			<output>
				<port id="2" precision="FP32" names="/_operators.0/GatherElements_2_output_0">
					<dim>-1</dim>
					<dim>100</dim>
				</port>
			</output>
		</layer>
		<layer id="58" name="Constant_181" type="Const" version="opset1">
			<data element_type="i64" shape="1" offset="14610" size="8" />
			<rt_info>
				<attribute name="precise" version="0" />
			</rt_info>
			<output>
				<port id="0" precision="I64">
					<dim>1</dim>
				</port>
			</output>
		</layer>
		<layer id="59" name="/_operators.0/Reshape_6" type="Reshape" version="opset1">
			<data special_zero="true" />
			<input>
				<port id="0" precision="FP32">
					<dim>-1</dim>
					<dim>100</dim>
				</port>
				<port id="1" precision="I64">
					<dim>1</dim>
				</port>
			</input>
			<output>
				<port id="2" precision="FP32" names="/_operators.0/Reshape_6_output_0">
					<dim>-1</dim>
				</port>
			</output>
		</layer>
		<layer id="60" name="_operators.0.biases.2_compressed" type="Const" version="opset1">
			<data element_type="f16" shape="800" offset="27050" size="1600" />
			<output>
				<port id="0" precision="FP16">
					<dim>800</dim>
				</port>
			</output>
		</layer>
		<layer id="61" name="_operators.0.biases.2" type="Convert" version="opset1">
			<data destination_type="f32" />
			<rt_info>
				<attribute name="decompression" version="0" />
			</rt_info>
			<input>
				<port id="0" precision="FP16">
					<dim>800</dim>
				</port>
			</input>
			<output>
				<port id="1" precision="FP32" names="_operators.0.biases.2">
					<dim>800</dim>
				</port>
			</output>
		</layer>
		<layer id="62" name="Constant_60" type="Const" version="opset1">
			<data element_type="i64" shape="" offset="16226" size="8" />
			<output>
				<port id="0" precision="I64" />
			</output>
		</layer>
		<layer id="63" name="/_operators.0/Gather_6" type="Gather" version="opset8">
			<data batch_dims="0" />
			<input>
				<port id="0" precision="FP32">
					<dim>800</dim>
				</port>
				<port id="1" precision="I64">
					<dim>-1</dim>
				</port>
				<port id="2" precision="I64" />
			</input>
			<output>
				<port id="3" precision="FP32" names="/_operators.0/Gather_6_output_0">
					<dim>-1</dim>
				</port>
			</output>
		</layer>
		<layer id="64" name="/_operators.0/Less_3" type="Less" version="opset1">
			<data auto_broadcast="numpy" />
			<input>
				<port id="0" precision="FP32">
					<dim>-1</dim>
				</port>
				<port id="1" precision="FP32">
					<dim>-1</dim>
				</port>
			</input>
			<output>
				<port id="2" precision="BOOL" names="/_operators.0/Less_3_output_0">
					<dim>-1</dim>
				</port>
			</output>
		</layer>
		<layer id="65" name="/_operators.0/Cast_3" type="Convert" version="opset1">
			<data destination_type="i64" />
			<input>
				<port id="0" precision="BOOL">
					<dim>-1</dim>
				</port>
			</input>
			<output>
				<port id="1" precision="I64" names="/_operators.0/Cast_3_output_0">
					<dim>-1</dim>
				</port>
			</output>
		</layer>
		<layer id="66" name="/_operators.0/Add_3" type="Add" version="opset1">
			<data auto_broadcast="numpy" />
			<input>
				<port id="0" precision="I64">
					<dim>-1</dim>
				</port>
				<port id="1" precision="I64">
					<dim>-1</dim>
				</port>
			</input>
			<output>
				<port id="2" precision="I64" names="/_operators.0/Add_3_output_0">
					<dim>-1</dim>
				</port>
			</output>
		</layer>
		<layer id="67" name="Constant_1738" type="Const" version="opset1">
			<data element_type="i64" shape="1" offset="14618" size="8" />
			<output>
				<port id="0" precision="I64">
					<dim>1</dim>
				</port>
			</output>
		</layer>
		<layer id="68" name="/_operators.0/Mul_3" type="Multiply" version="opset1">
			<data auto_broadcast="numpy" />
			<input>
				<port id="0" precision="I64">
					<dim>-1</dim>
				</port>
				<port id="1" precision="I64">
					<dim>1</dim>
				</port>
			</input>
			<output>
				<port id="2" precision="I64" names="/_operators.0/Mul_3_output_0">
					<dim>-1</dim>
				</port>
			</output>
		</layer>
		<layer id="69" name="_operators.0.nodes.3" type="Const" version="opset1">
			<data element_type="i64" shape="1600" offset="28650" size="12800" />
			<output>
				<port id="0" precision="I64" names="_operators.0.nodes.3">
					<dim>1600</dim>
				</port>
			</output>
		</layer>
		<layer id="70" name="Constant_65" type="Const" version="opset1">
			<data element_type="i64" shape="" offset="16226" size="8" />
			<output>
				<port id="0" precision="I64" />
			</output>
		</layer>
		<layer id="71" name="/_operators.0/Gather_7" type="Gather" version="opset8">
			<data batch_dims="0" />
			<input>
				<port id="0" precision="I64">
					<dim>1600</dim>
				</port>
				<port id="1" precision="I64">
					<dim>-1</dim>
				</port>
				<port id="2" precision="I64" />
			</input>
			<output>
				<port id="3" precision="I64" names="/_operators.0/Gather_7_output_0">
					<dim>-1</dim>
				</port>
			</output>
		</layer>
		<layer id="72" name="/_operators.0/Constant_10" type="Const" version="opset1">
			<data element_type="i64" shape="2" offset="16234" size="16" />
			<rt_info>
				<attribute name="precise" version="0" />
			</rt_info>
			<output>
				<port id="0" precision="I64" names="/_operators.0/Constant_10_output_0">
					<dim>2</dim>
				</port>
			</output>
		</layer>
		<layer id="73" name="/_operators.0/Reshape_7" type="Reshape" version="opset1">
			<data special_zero="true" />
			<input>
				<port id="0" precision="I64">
					<dim>-1</dim>
				</port>
				<port id="1" precision="I64">
					<dim>2</dim>
				</port>
			</input>
			<output>
				<port id="2" precision="I64" names="/_operators.0/Reshape_7_output_0">
					<dim>-1</dim>
					<dim>100</dim>
				</port>
			</output>
		</layer>
		<layer id="74" name="/_operators.0/GatherElements_3" type="GatherElements" version="opset6">
			<data axis="1" />
			<input>
				<port id="0" precision="FP32">
					<dim>-1</dim>
					<dim>13601</dim>
				</port>
				<port id="1" precision="I64">
					<dim>-1</dim>
					<dim>100</dim>
				</port>
			</input>
			<output>
				<port id="2" precision="FP32" names="/_operators.0/GatherElements_3_output_0">
					<dim>-1</dim>
					<dim>100</dim>
				</port>
			</output>
		</layer>
		<layer id="75" name="Constant_182" type="Const" version="opset1">
			<data element_type="i64" shape="1" offset="14610" size="8" />
			<rt_info>
				<attribute name="precise" version="0" />
			</rt_info>
			<output>
				<port id="0" precision="I64">
					<dim>1</dim>
				</port>
			</output>
		</layer>
		<layer id="76" name="/_operators.0/Reshape_8" type="Reshape" version="opset1">
			<data special_zero="true" />
			<input>
				<port id="0" precision="FP32">
					<dim>-1</dim>
					<dim>100</dim>
				</port>
				<port id="1" precision="I64">
					<dim>1</dim>
				</port>
			</input>
			<output>
				<port id="2" precision="FP32" names="/_operators.0/Reshape_8_output_0">
					<dim>-1</dim>
				</port>
			</output>
		</layer>
		<layer id="77" name="_operators.0.biases.3_compressed" type="Const" version="opset1">
			<data element_type="f16" shape="1600" offset="41450" size="3200" />
			<output>
				<port id="0" precision="FP16">
					<dim>1600</dim>
				</port>
			</output>
		</layer>
		<layer id="78" name="_operators.0.biases.3" type="Convert" version="opset1">
			<data destination_type="f32" />
			<rt_info>
				<attribute name="decompression" version="0" />
			</rt_info>
			<input>
				<port id="0" precision="FP16">
					<dim>1600</dim>
				</port>
			</input>
			<output>
				<port id="1" precision="FP32" names="_operators.0.biases.3">
					<dim>1600</dim>
				</port>
			</output>
		</layer>
		<layer id="79" name="Constant_74" type="Const" version="opset1">
			<data element_type="i64" shape="" offset="16226" size="8" />
			<output>
				<port id="0" precision="I64" />
			</output>
		</layer>
		<layer id="80" name="/_operators.0/Gather_8" type="Gather" version="opset8">
			<data batch_dims="0" />
			<input>
				<port id="0" precision="FP32">
					<dim>1600</dim>
				</port>
				<port id="1" precision="I64">
					<dim>-1</dim>
				</port>
				<port id="2" precision="I64" />
			</input>
			<output>
				<port id="3" precision="FP32" names="/_operators.0/Gather_8_output_0">
					<dim>-1</dim>
				</port>
			</output>
		</layer>
		<layer id="81" name="/_operators.0/Less_4" type="Less" version="opset1">
			<data auto_broadcast="numpy" />
			<input>
				<port id="0" precision="FP32">
					<dim>-1</dim>
				</port>
				<port id="1" precision="FP32">
					<dim>-1</dim>
				</port>
			</input>
			<output>
				<port id="2" precision="BOOL" names="/_operators.0/Less_4_output_0">
					<dim>-1</dim>
				</port>
			</output>
		</layer>
		<layer id="82" name="/_operators.0/Cast_4" type="Convert" version="opset1">
			<data destination_type="i64" />
			<input>
				<port id="0" precision="BOOL">
					<dim>-1</dim>
				</port>
			</input>
			<output>
				<port id="1" precision="I64" names="/_operators.0/Cast_4_output_0">
					<dim>-1</dim>
				</port>
			</output>
		</layer>
		<layer id="83" name="/_operators.0/Add_4" type="Add" version="opset1">
			<data auto_broadcast="numpy" />
			<input>
				<port id="0" precision="I64">
					<dim>-1</dim>
				</port>
				<port id="1" precision="I64">
					<dim>-1</dim>
				</port>
			</input>
			<output>
				<port id="2" precision="I64" names="/_operators.0/Add_4_output_0">
					<dim>-1</dim>
				</port>
			</output>
		</layer>
		<layer id="84" name="Constant_1739" type="Const" version="opset1">
			<data element_type="i64" shape="1" offset="14618" size="8" />
			<output>
				<port id="0" precision="I64">
					<dim>1</dim>
				</port>
			</output>
		</layer>
		<layer id="85" name="/_operators.0/Mul_4" type="Multiply" version="opset1">
			<data auto_broadcast="numpy" />
			<input>
				<port id="0" precision="I64">
					<dim>-1</dim>
				</port>
				<port id="1" precision="I64">
					<dim>1</dim>
				</port>
			</input>
			<output>
				<port id="2" precision="I64" names="/_operators.0/Mul_4_output_0">
					<dim>-1</dim>
				</port>
			</output>
		</layer>
		<layer id="86" name="_operators.0.nodes.4" type="Const" version="opset1">
			<data element_type="i64" shape="3200" offset="44650" size="25600" />
			<output>
				<port id="0" precision="I64" names="_operators.0.nodes.4">
					<dim>3200</dim>
				</port>
			</output>
		</layer>
		<layer id="87" name="Constant_79" type="Const" version="opset1">
			<data element_type="i64" shape="" offset="16226" size="8" />
			<output>
				<port id="0" precision="I64" />
			</output>
		</layer>
		<layer id="88" name="/_operators.0/Gather_9" type="Gather" version="opset8">
			<data batch_dims="0" />
			<input>
				<port id="0" precision="I64">
					<dim>3200</dim>
				</port>
				<port id="1" precision="I64">
					<dim>-1</dim>
				</port>
				<port id="2" precision="I64" />
			</input>
			<output>
				<port id="3" precision="I64" names="/_operators.0/Gather_9_output_0">
					<dim>-1</dim>
				</port>
			</output>
		</layer>
		<layer id="89" name="/_operators.0/Constant_13" type="Const" version="opset1">
			<data element_type="i64" shape="2" offset="16234" size="16" />
			<rt_info>
				<attribute name="precise" version="0" />
			</rt_info>
			<output>
				<port id="0" precision="I64" names="/_operators.0/Constant_13_output_0">
					<dim>2</dim>
				</port>
			</output>
		</layer>
		<layer id="90" name="/_operators.0/Reshape_9" type="Reshape" version="opset1">
			<data special_zero="true" />
			<input>
				<port id="0" precision="I64">
					<dim>-1</dim>
				</port>
				<port id="1" precision="I64">
					<dim>2</dim>
				</port>
			</input>
			<output>
				<port id="2" precision="I64" names="/_operators.0/Reshape_9_output_0">
					<dim>-1</dim>
					<dim>100</dim>
				</port>
			</output>
		</layer>
		<layer id="91" name="/_operators.0/GatherElements_4" type="GatherElements" version="opset6">
			<data axis="1" />
			<input>
				<port id="0" precision="FP32">
					<dim>-1</dim>
					<dim>13601</dim>
				</port>
				<port id="1" precision="I64">
					<dim>-1</dim>
					<dim>100</dim>
				</port>
			</input>
			<output>
				<port id="2" precision="FP32" names="/_operators.0/GatherElements_4_output_0">
					<dim>-1</dim>
					<dim>100</dim>
				</port>
			</output>
		</layer>
		<layer id="92" name="Constant_183" type="Const" version="opset1">
			<data element_type="i64" shape="1" offset="14610" size="8" />
			<rt_info>
				<attribute name="precise" version="0" />
			</rt_info>
			<output>
				<port id="0" precision="I64">
					<dim>1</dim>
				</port>
			</output>
		</layer>
		<layer id="93" name="/_operators.0/Reshape_10" type="Reshape" version="opset1">
			<data special_zero="true" />
			<input>
				<port id="0" precision="FP32">
					<dim>-1</dim>
					<dim>100</dim>
				</port>
				<port id="1" precision="I64">
					<dim>1</dim>
				</port>
			</input>
			<output>
				<port id="2" precision="FP32" names="/_operators.0/Reshape_10_output_0">
					<dim>-1</dim>
				</port>
			</output>
		</layer>
		<layer id="94" name="_operators.0.biases.4_compressed" type="Const" version="opset1">
			<data element_type="f16" shape="3200" offset="70250" size="6400" />
			<output>
				<port id="0" precision="FP16">
					<dim>3200</dim>
				</port>
			</output>
		</layer>
		<layer id="95" name="_operators.0.biases.4" type="Convert" version="opset1">
			<data destination_type="f32" />
			<rt_info>
				<attribute name="decompression" version="0" />
			</rt_info>
			<input>
				<port id="0" precision="FP16">
					<dim>3200</dim>
				</port>
			</input>
			<output>
				<port id="1" precision="FP32" names="_operators.0.biases.4">
					<dim>3200</dim>
				</port>
			</output>
		</layer>
		<layer id="96" name="Constant_88" type="Const" version="opset1">
			<data element_type="i64" shape="" offset="16226" size="8" />
			<output>
				<port id="0" precision="I64" />
			</output>
		</layer>
		<layer id="97" name="/_operators.0/Gather_10" type="Gather" version="opset8">
			<data batch_dims="0" />
			<input>
				<port id="0" precision="FP32">
					<dim>3200</dim>
				</port>
				<port id="1" precision="I64">
					<dim>-1</dim>
				</port>
				<port id="2" precision="I64" />
			</input>
			<output>
				<port id="3" precision="FP32" names="/_operators.0/Gather_10_output_0">
					<dim>-1</dim>
				</port>
			</output>
		</layer>
		<layer id="98" name="/_operators.0/Less_5" type="Less" version="opset1">
			<data auto_broadcast="numpy" />
			<input>
				<port id="0" precision="FP32">
					<dim>-1</dim>
				</port>
				<port id="1" precision="FP32">
					<dim>-1</dim>
				</port>
			</input>
			<output>
				<port id="2" precision="BOOL" names="/_operators.0/Less_5_output_0">
					<dim>-1</dim>
				</port>
			</output>
		</layer>
		<layer id="99" name="/_operators.0/Cast_5" type="Convert" version="opset1">
			<data destination_type="i64" />
			<input>
				<port id="0" precision="BOOL">
					<dim>-1</dim>
				</port>
			</input>
			<output>
				<port id="1" precision="I64" names="/_operators.0/Cast_5_output_0">
					<dim>-1</dim>
				</port>
			</output>
		</layer>
		<layer id="100" name="/_operators.0/Add_5" type="Add" version="opset1">
			<data auto_broadcast="numpy" />
			<input>
				<port id="0" precision="I64">
					<dim>-1</dim>
				</port>
				<port id="1" precision="I64">
					<dim>-1</dim>
				</port>
			</input>
			<output>
				<port id="2" precision="I64" names="/_operators.0/Add_5_output_0">
					<dim>-1</dim>
				</port>
			</output>
		</layer>
		<layer id="101" name="Constant_93" type="Const" version="opset1">
			<data element_type="i64" shape="" offset="16226" size="8" />
			<output>
				<port id="0" precision="I64" />
			</output>
		</layer>
		<layer id="102" name="/_operators.0/Gather_11" type="Gather" version="opset8">
			<data batch_dims="0" />
			<input>
				<port id="0" precision="FP32">
					<dim>6400</dim>
					<dim>1</dim>
				</port>
				<port id="1" precision="I64">
					<dim>-1</dim>
				</port>
				<port id="2" precision="I64" />
			</input>
			<output>
				<port id="3" precision="FP32" names="/_operators.0/Gather_11_output_0">
					<dim>-1</dim>
					<dim>1</dim>
				</port>
			</output>
		</layer>
		<layer id="103" name="/_operators.0/Constant_16" type="Const" version="opset1">
			<data element_type="i64" shape="3" offset="76650" size="24" />
			<rt_info>
				<attribute name="precise" version="0" />
			</rt_info>
			<output>
				<port id="0" precision="I64" names="/_operators.0/Constant_16_output_0">
					<dim>3</dim>
				</port>
			</output>
		</layer>
		<layer id="104" name="/_operators.0/Reshape_11" type="Reshape" version="opset1">
			<data special_zero="true" />
			<input>
				<port id="0" precision="FP32">
					<dim>-1</dim>
					<dim>1</dim>
				</port>
				<port id="1" precision="I64">
					<dim>3</dim>
				</port>
			</input>
			<output>
				<port id="2" precision="FP32" names="/_operators.0/Reshape_11_output_0">
					<dim>-1</dim>
					<dim>100</dim>
					<dim>1</dim>
				</port>
			</output>
		</layer>
		<layer id="105" name="/_operators.0/Constant_17" type="Const" version="opset1">
			<data element_type="i64" shape="3" offset="76674" size="24" />
			<rt_info>
				<attribute name="precise" version="0" />
			</rt_info>
			<output>
				<port id="0" precision="I64" names="/_operators.0/Constant_17_output_0">
					<dim>3</dim>
				</port>
			</output>
		</layer>
		<layer id="106" name="/_operators.0/Reshape_12" type="Reshape" version="opset1">
			<data special_zero="true" />
			<input>
				<port id="0" precision="FP32">
					<dim>-1</dim>
					<dim>100</dim>
					<dim>1</dim>
				</port>
				<port id="1" precision="I64">
					<dim>3</dim>
				</port>
			</input>
			<output>
				<port id="2" precision="FP32" names="/_operators.0/Reshape_12_output_0">
					<dim>-1</dim>
					<dim>1</dim>
					<dim>100</dim>
				</port>
			</output>
		</layer>
		<layer id="107" name="Constant_99" type="Const" version="opset1">
			<data element_type="i64" shape="1" offset="14618" size="8" />
			<output>
				<port id="0" precision="I64">
					<dim>1</dim>
				</port>
			</output>
		</layer>
		<layer id="108" name="/_operators.0/ReduceSum" type="ReduceSum" version="opset1">
			<data keep_dims="false" />
			<input>
				<port id="0" precision="FP32">
					<dim>-1</dim>
					<dim>1</dim>
					<dim>100</dim>
				</port>
				<port id="1" precision="I64">
					<dim>1</dim>
				</port>
			</input>
			<output>
				<port id="2" precision="FP32" names="/_operators.0/ReduceSum_output_0">
					<dim>-1</dim>
					<dim>1</dim>
				</port>
			</output>
		</layer>
		<layer id="109" name="/_operators.0/Sigmoid" type="Sigmoid" version="opset1">
			<input>
				<port id="0" precision="FP32">
					<dim>-1</dim>
					<dim>1</dim>
				</port>
			</input>
			<output>
				<port id="1" precision="FP32" names="/_operators.0/Sigmoid_output_0">
					<dim>-1</dim>
					<dim>1</dim>
				</port>
			</output>
		</layer>
		<layer id="110" name="/_operators.0/Sub" type="Subtract" version="opset1">
			<data auto_broadcast="numpy" />
			<input>
				<port id="0" precision="FP32">
					<dim>1</dim>
					<dim>1</dim>
				</port>
				<port id="1" precision="FP32">
					<dim>-1</dim>
					<dim>1</dim>
				</port>
			</input>
			<output>
				<port id="2" precision="FP32" names="/_operators.0/Sub_output_0">
					<dim>-1</dim>
					<dim>1</dim>
				</port>
			</output>
		</layer>
		<layer id="111" name="onnx::ArgMax_90" type="Concat" version="opset1">
			<data axis="1" />
			<input>
				<port id="0" precision="FP32">
					<dim>-1</dim>
					<dim>1</dim>
				</port>
				<port id="1" precision="FP32">
					<dim>-1</dim>
					<dim>1</dim>
				</port>
			</input>
			<output>
				<port id="2" precision="FP32" names="onnx::ArgMax_90">
					<dim>-1</dim>
					<dim>2</dim>
				</port>
			</output>
		</layer>
		<layer id="113" name="Constant_105" type="Const" version="opset1">
			<data element_type="i64" shape="" offset="13602" size="8" />
			<rt_info>
				<attribute name="precise" version="0" />
			</rt_info>
			<output>
				<port id="0" precision="I64" />
			</output>
		</layer>
		<layer id="114" name="TopK_106" type="TopK" version="opset11">
			<data axis="1" mode="max" sort="none" index_element_type="i32" stable="false" />
			<input>
				<port id="0" precision="FP32">
					<dim>-1</dim>
					<dim>2</dim>
				</port>
				<port id="1" precision="I64" />
			</input>
			<output>
				<port id="2" precision="FP32">
					<dim>-1</dim>
					<dim>1</dim>
				</port>
				<port id="3" precision="I32">
					<dim>-1</dim>
					<dim>1</dim>
				</port>
			</output>
		</layer>
		<layer id="115" name="Convert_107" type="Convert" version="opset1">
			<data destination_type="i64" />
			<input>
				<port id="0" precision="I32">
					<dim>-1</dim>
					<dim>1</dim>
				</port>
			</input>
			<output>
				<port id="1" precision="I64">
					<dim>-1</dim>
					<dim>1</dim>
				</port>
			</output>
		</layer>
		<layer id="116" name="Constant_108" type="Const" version="opset1">
			<data element_type="u64" shape="" offset="13602" size="8" />
			<output>
				<port id="0" precision="U64" />
			</output>
		</layer>
		<layer id="117" name="output" type="Squeeze" version="opset1">
			<input>
				<port id="0" precision="I64">
					<dim>-1</dim>
					<dim>1</dim>
				</port>
				<port id="1" precision="U64" />
			</input>
			<output>
				<port id="2" precision="I64" names="output">
					<dim>-1</dim>
				</port>
			</output>
		</layer>
		<layer id="118" name="output/sink_port_0" type="Result" version="opset1">
			<input>
				<port id="0" precision="I64">
					<dim>-1</dim>
				</port>
			</input>
		</layer>
		<layer id="112" name="onnx::ArgMax_90/sink_port_0" type="Result" version="opset1">
			<input>
				<port id="0" precision="FP32">
					<dim>-1</dim>
					<dim>2</dim>
				</port>
			</input>
		</layer>
	</layers>
	<edges>
		<edge from-layer="0" from-port="0" to-layer="7" to-port="0" />
		<edge from-layer="0" from-port="0" to-layer="57" to-port="0" />
		<edge from-layer="0" from-port="0" to-layer="40" to-port="0" />
		<edge from-layer="0" from-port="0" to-layer="23" to-port="0" />
		<edge from-layer="0" from-port="0" to-layer="91" to-port="0" />
		<edge from-layer="0" from-port="0" to-layer="74" to-port="0" />
		<edge from-layer="1" from-port="0" to-layer="2" to-port="0" />
		<edge from-layer="2" from-port="1" to-layer="110" to-port="0" />
		<edge from-layer="3" from-port="0" to-layer="4" to-port="0" />
		<edge from-layer="4" from-port="1" to-layer="102" to-port="0" />
		<edge from-layer="5" from-port="0" to-layer="7" to-port="1" />
		<edge from-layer="6" from-port="0" to-layer="7" to-port="2" />
		<edge from-layer="7" from-port="3" to-layer="10" to-port="0" />
		<edge from-layer="8" from-port="0" to-layer="9" to-port="0" />
		<edge from-layer="9" from-port="1" to-layer="10" to-port="1" />
		<edge from-layer="10" from-port="2" to-layer="11" to-port="0" />
		<edge from-layer="11" from-port="1" to-layer="13" to-port="0" />
		<edge from-layer="12" from-port="0" to-layer="13" to-port="1" />
		<edge from-layer="13" from-port="2" to-layer="15" to-port="0" />
		<edge from-layer="14" from-port="0" to-layer="15" to-port="1" />
		<edge from-layer="15" from-port="2" to-layer="29" to-port="1" />
		<edge from-layer="15" from-port="2" to-layer="20" to-port="1" />
		<edge from-layer="15" from-port="2" to-layer="17" to-port="0" />
		<edge from-layer="16" from-port="0" to-layer="17" to-port="1" />
		<edge from-layer="17" from-port="2" to-layer="32" to-port="0" />
		<edge from-layer="18" from-port="0" to-layer="20" to-port="0" />
		<edge from-layer="19" from-port="0" to-layer="20" to-port="2" />
		<edge from-layer="20" from-port="3" to-layer="22" to-port="0" />
		<edge from-layer="21" from-port="0" to-layer="22" to-port="1" />
		<edge from-layer="22" from-port="2" to-layer="23" to-port="1" />
		<edge from-layer="23" from-port="2" to-layer="25" to-port="0" />
		<edge from-layer="24" from-port="0" to-layer="25" to-port="1" />
		<edge from-layer="25" from-port="2" to-layer="30" to-port="0" />
		<edge from-layer="26" from-port="0" to-layer="27" to-port="0" />
		<edge from-layer="27" from-port="1" to-layer="29" to-port="0" />
		<edge from-layer="28" from-port="0" to-layer="29" to-port="2" />
		<edge from-layer="29" from-port="3" to-layer="30" to-port="1" />
		<edge from-layer="30" from-port="2" to-layer="31" to-port="0" />
		<edge from-layer="31" from-port="1" to-layer="32" to-port="1" />
		<edge from-layer="32" from-port="2" to-layer="37" to-port="1" />
		<edge from-layer="32" from-port="2" to-layer="46" to-port="1" />
		<edge from-layer="32" from-port="2" to-layer="34" to-port="0" />
		<edge from-layer="33" from-port="0" to-layer="34" to-port="1" />
		<edge from-layer="34" from-port="2" to-layer="49" to-port="0" />
		<edge from-layer="35" from-port="0" to-layer="37" to-port="0" />
		<edge from-layer="36" from-port="0" to-layer="37" to-port="2" />
		<edge from-layer="37" from-port="3" to-layer="39" to-port="0" />
		<edge from-layer="38" from-port="0" to-layer="39" to-port="1" />
		<edge from-layer="39" from-port="2" to-layer="40" to-port="1" />
		<edge from-layer="40" from-port="2" to-layer="42" to-port="0" />
		<edge from-layer="41" from-port="0" to-layer="42" to-port="1" />
		<edge from-layer="42" from-port="2" to-layer="47" to-port="0" />
		<edge from-layer="43" from-port="0" to-layer="44" to-port="0" />
		<edge from-layer="44" from-port="1" to-layer="46" to-port="0" />
		<edge from-layer="45" from-port="0" to-layer="46" to-port="2" />
		<edge from-layer="46" from-port="3" to-layer="47" to-port="1" />
		<edge from-layer="47" from-port="2" to-layer="48" to-port="0" />
		<edge from-layer="48" from-port="1" to-layer="49" to-port="1" />
		<edge from-layer="49" from-port="2" to-layer="51" to-port="0" />
		<edge from-layer="49" from-port="2" to-layer="54" to-port="1" />
		<edge from-layer="49" from-port="2" to-layer="63" to-port="1" />
		<edge from-layer="50" from-port="0" to-layer="51" to-port="1" />
		<edge from-layer="51" from-port="2" to-layer="66" to-port="0" />
		<edge from-layer="52" from-port="0" to-layer="54" to-port="0" />
		<edge from-layer="53" from-port="0" to-layer="54" to-port="2" />
		<edge from-layer="54" from-port="3" to-layer="56" to-port="0" />
		<edge from-layer="55" from-port="0" to-layer="56" to-port="1" />
		<edge from-layer="56" from-port="2" to-layer="57" to-port="1" />
		<edge from-layer="57" from-port="2" to-layer="59" to-port="0" />
		<edge from-layer="58" from-port="0" to-layer="59" to-port="1" />
		<edge from-layer="59" from-port="2" to-layer="64" to-port="0" />
		<edge from-layer="60" from-port="0" to-layer="61" to-port="0" />
		<edge from-layer="61" from-port="1" to-layer="63" to-port="0" />
		<edge from-layer="62" from-port="0" to-layer="63" to-port="2" />
		<edge from-layer="63" from-port="3" to-layer="64" to-port="1" />
		<edge from-layer="64" from-port="2" to-layer="65" to-port="0" />
		<edge from-layer="65" from-port="1" to-layer="66" to-port="1" />
		<edge from-layer="66" from-port="2" to-layer="71" to-port="1" />
		<edge from-layer="66" from-port="2" to-layer="80" to-port="1" />
		<edge from-layer="66" from-port="2" to-layer="68" to-port="0" />
		<edge from-layer="67" from-port="0" to-layer="68" to-port="1" />
		<edge from-layer="68" from-port="2" to-layer="83" to-port="0" />
		<edge from-layer="69" from-port="0" to-layer="71" to-port="0" />
		<edge from-layer="70" from-port="0" to-layer="71" to-port="2" />
		<edge from-layer="71" from-port="3" to-layer="73" to-port="0" />
		<edge from-layer="72" from-port="0" to-layer="73" to-port="1" />
		<edge from-layer="73" from-port="2" to-layer="74" to-port="1" />
		<edge from-layer="74" from-port="2" to-layer="76" to-port="0" />
		<edge from-layer="75" from-port="0" to-layer="76" to-port="1" />
		<edge from-layer="76" from-port="2" to-layer="81" to-port="0" />
		<edge from-layer="77" from-port="0" to-layer="78" to-port="0" />
		<edge from-layer="78" from-port="1" to-layer="80" to-port="0" />
		<edge from-layer="79" from-port="0" to-layer="80" to-port="2" />
		<edge from-layer="80" from-port="3" to-layer="81" to-port="1" />
		<edge from-layer="81" from-port="2" to-layer="82" to-port="0" />
		<edge from-layer="82" from-port="1" to-layer="83" to-port="1" />
		<edge from-layer="83" from-port="2" to-layer="85" to-port="0" />
		<edge from-layer="83" from-port="2" to-layer="88" to-port="1" />
		<edge from-layer="83" from-port="2" to-layer="97" to-port="1" />
		<edge from-layer="84" from-port="0" to-layer="85" to-port="1" />
		<edge from-layer="85" from-port="2" to-layer="100" to-port="0" />
		<edge from-layer="86" from-port="0" to-layer="88" to-port="0" />
		<edge from-layer="87" from-port="0" to-layer="88" to-port="2" />
		<edge from-layer="88" from-port="3" to-layer="90" to-port="0" />
		<edge from-layer="89" from-port="0" to-layer="90" to-port="1" />
		<edge from-layer="90" from-port="2" to-layer="91" to-port="1" />
		<edge from-layer="91" from-port="2" to-layer="93" to-port="0" />
		<edge from-layer="92" from-port="0" to-layer="93" to-port="1" />
		<edge from-layer="93" from-port="2" to-layer="98" to-port="0" />
		<edge from-layer="94" from-port="0" to-layer="95" to-port="0" />
		<edge from-layer="95" from-port="1" to-layer="97" to-port="0" />
		<edge from-layer="96" from-port="0" to-layer="97" to-port="2" />
		<edge from-layer="97" from-port="3" to-layer="98" to-port="1" />
		<edge from-layer="98" from-port="2" to-layer="99" to-port="0" />
		<edge from-layer="99" from-port="1" to-layer="100" to-port="1" />
		<edge from-layer="100" from-port="2" to-layer="102" to-port="1" />
		<edge from-layer="101" from-port="0" to-layer="102" to-port="2" />
		<edge from-layer="102" from-port="3" to-layer="104" to-port="0" />
		<edge from-layer="103" from-port="0" to-layer="104" to-port="1" />
		<edge from-layer="104" from-port="2" to-layer="106" to-port="0" />
		<edge from-layer="105" from-port="0" to-layer="106" to-port="1" />
		<edge from-layer="106" from-port="2" to-layer="108" to-port="0" />
		<edge from-layer="107" from-port="0" to-layer="108" to-port="1" />
		<edge from-layer="108" from-port="2" to-layer="109" to-port="0" />
		<edge from-layer="109" from-port="1" to-layer="110" to-port="1" />
		<edge from-layer="109" from-port="1" to-layer="111" to-port="1" />
		<edge from-layer="110" from-port="2" to-layer="111" to-port="0" />
		<edge from-layer="111" from-port="2" to-layer="112" to-port="0" />
		<edge from-layer="111" from-port="2" to-layer="114" to-port="0" />
		<edge from-layer="113" from-port="0" to-layer="114" to-port="1" />
		<edge from-layer="114" from-port="3" to-layer="115" to-port="0" />
		<edge from-layer="115" from-port="1" to-layer="117" to-port="0" />
		<edge from-layer="116" from-port="0" to-layer="117" to-port="1" />
		<edge from-layer="117" from-port="2" to-layer="118" to-port="0" />
	</edges>
	<rt_info>
		<MO_version value="2024.6.0-17404-4c0f47d2335-releases/2024/6" />
		<Runtime_version value="2024.6.0-17404-4c0f47d2335-releases/2024/6" />
		<conversion_parameters>
			<input_model value="DIR\xgb_churn_model_hb.onnx" />
			<is_python_api_used value="False" />
			<output_dir value="E:\churnp\openvino_model" />
		</conversion_parameters>
		<legacy_frontend value="False" />
	</rt_info>
</net>
